…
     "iopub.status.busy": "2024-10-28T15:35:59.926689Z",
     "iopub.status.idle": "2024-10-28T15:35:59.936516Z",
     "shell.execute_reply": "2024-10-28T15:35:59.935608Z"
    },
    "papermill": {
     "duration": 0.020299,
     "end_time": "2024-10-28T15:35:59.938456",
     "exception": false,
     "start_time": "2024-10-28T15:35:59.918157",
     "status": "completed"
    },
    "tags": []
   },
   "outputs": [
    {
     "data": {
      "text/plain": [
       "Sequential(\n",
       "  (0): TimmBody(\n",
       "    (model): ConvNeXt(\n",
       "      (stem): Sequential(\n",
       "        (0): Conv2d(3, 48, kernel_size=(4, 4), stride=(4, 4))\n",
       "        (1): LayerNorm2d((48,), eps=1e-06, elementwise_affine=True)\n",
       "      )\n",
       "      (stages): Sequential(\n",
       "        (0): ConvNeXtStage(\n",
       "          (downsample): Identity()\n",
       "          (blocks): Sequential(\n",
       "            (0): ConvNeXtBlock(\n",
       "              (conv_dw): Conv2d(48, 48, kernel_size=(7, 7), stride=(1, 1), padding=(3, 3), groups=48)\n",
       "              (norm): LayerNorm2d((48,), eps=1e-06, elementwise_affine=True)\n",
       "              (mlp): GlobalResponseNormMlp(\n",
       "                (fc1): Conv2d(48, 192, kernel_size=(1, 1), stride=(1, 1))\n",
       "                (act): GELU()\n",
       "                (drop1): Dropout(p=0.0, inplace=False)\n",
       "                (grn): GlobalResponseNorm()\n",
       "                (fc2): Conv2d(192, 48, kernel_size=(1, 1), stride=(1, 1))\n",
       "                (drop2): Dropout(p=0.0, inplace=False)\n",
       "              )\n",
       "              (shortcut): Identity()\n",
       "              (drop_path): Identity()\n",
       "            )\n",
       "            (1): ConvNeXtBlock(\n",
       "              (conv_dw): Conv2d(48, 48, kernel_size=(7, 7), stride=(1, 1), padding=(3, 3), groups=48)\n",
       "              (norm): LayerNorm2d((48,), eps=1e-06, elementwise_affine=True)\n",
       "              (mlp): GlobalResponseNormMlp(\n",
       "                (fc1): Conv2d(48, 192, kernel_size=(1, 1), stride=(1, 1))\n",
       "                (act): GELU()\n",
       "                (drop1): Dropout(p=0.0, inplace=False)\n",
       "                (grn): GlobalResponseNorm()\n",
       "                (fc2): Conv2d(192, 48, kernel_size=(1, 1), stride=(1, 1))\n",
       "                (drop2): Dropout(p=0.0, inplace=False)\n",
       "              )\n",
       "              (shortcut): Identity()\n",
       "              (drop_path): Identity()\n",
       "            )\n",
       "          )\n",
       "        )\n",
       "        (1): ConvNeXtStage(\n",
       "          (downsample): Sequential(\n",
       "            (0): LayerNorm2d((48,), eps=1e-06, elementwise_affine=True)\n",
       "            (1): Conv2d(48, 96, kernel_size=(2, 2), stride=(2, 2))\n",
       "          )\n",
       "          (blocks): Sequential(\n",
       "            (0): ConvNeXtBlock(\n",
       "              (conv_dw): Conv2d(96, 96, kernel_size=(7, 7), stride=(1, 1), padding=(3, 3), groups=96)\n",
       "              (norm): LayerNorm2d((96,), eps=1e-06, elementwise_affine=True)\n",
       "              (mlp): GlobalResponseNormMlp(\n",
       "                (fc1): Conv2d(96, 384, kernel_size=(1, 1), stride=(1, 1))\n",
       "                (act): GELU()\n",
       "                (drop1): Dropout(p=0.0, inplace=False)\n",
       "                (grn): GlobalResponseNorm()\n",
       "                (fc2): Conv2d(384, 96, kernel_size=(1, 1), stride=(1, 1))\n",
       "                (drop2): Dropout(p=0.0, inplace=False)\n",
       "              )\n",
       "              (shortcut): Identity()\n",
       "              (drop_path): Identity()\n",
       "            )\n",
       "            (1): ConvNeXtBlock(\n",
       "              (conv_dw): Conv2d(96, 96, kernel_size=(7, 7), stride=(1, 1), padding=(3, 3), groups=96)\n",
       "              (norm): LayerNorm2d((96,), eps=1e-06, elementwise_affine=True)\n",
       "              (mlp): GlobalResponseNormMlp(\n",
       "                (fc1): Conv2d(96, 384, kernel_size=(1, 1), stride=(1, 1))\n",
       "                (act): GELU()\n",
       "                (drop1): Dropout(p=0.0, inplace=False)\n",
       "                (grn): GlobalResponseNorm()\n",
       "                (fc2): Conv2d(384, 96, kernel_size=(1, 1), stride=(1, 1))\n",
       "                (drop2): Dropout(p=0.0, inplace=False)\n",
       "              )\n",
       "              (shortcut): Identity()\n",
       "              (drop_path): Identity()\n",
       "            )\n",
       "          )\n",
       "        )\n",
       "        (2): ConvNeXtStage(\n",
       "          (downsample): Sequential(\n",
       "            (0): LayerNorm2d((96,), eps=1e-06, elementwise_affine=True)\n",
       "            (1): Conv2d(96, 192, kernel_size=(2, 2), stride=(2, 2))\n",
       "          )\n",
       "          (blocks): Sequential(\n",
       "            (0): ConvNeXtBlock(\n",
       "              (conv_dw): Conv2d(192, 192, kernel_size=(7, 7), stride=(1, 1), padding=(3, 3), groups=192)\n",
       "              (norm): LayerNorm2d((192,), eps=1e-06, elementwise_affine=True)\n",
       "              (mlp): GlobalResponseNormMlp(\n",
       "                (fc1): Conv2d(192, 768, kernel_size=(1, 1), stride=(1, 1))\n",
       "                (act): GELU()\n",
       "                (drop1): Dropout(p=0.0, inplace=False)\n",
       "                (grn): GlobalResponseNorm()\n",
       "                (fc2): Conv2d(768, 192, kernel_size=(1, 1), stride=(1, 1))\n",
       "                (drop2): Dropout(p=0.0, inplace=False)\n",
       "              )\n",
       "              (shortcut): Identity()\n",
       "              (drop_path): Identity()\n",
       "            )\n",
       "            (1): ConvNeXtBlock(\n",
       "              (conv_dw): Conv2d(192, 192, kernel_size=(7, 7), stride=(1, 1), padding=(3, 3), groups=192)\n",
       "              (norm): LayerNorm2d((192,), eps=1e-06, elementwise_affine=True)\n",
       "              (mlp): GlobalResponseNormMlp(\n",
       "                (fc1): Conv2d(192, 768, kernel_size=(1, 1), stride=(1, 1))\n",
       "                (act): GELU()\n",
       "                (drop1): Dropout(p=0.0, inplace=False)\n",
       "                (grn): GlobalResponseNorm()\n",
       "                (fc2): Conv2d(768, 192, kernel_size=(1, 1), stride=(1, 1))\n",
       "                (drop2): Dropout(p=0.0, inplace=False)\n",
       "              )\n",
       "              (shortcut): Identity()\n",
       "              (drop_path): Identity()\n",
       "            )\n",
       "            (2): ConvNeXtBlock(\n",
       "              (conv_dw): Conv2d(192, 192, kernel_size=(7, 7), stride=(1, 1), padding=(3, 3), groups=192)\n",
       "              (norm): LayerNorm2d((192,), eps=1e-06, elementwise_affine=True)\n",
       "              (mlp): GlobalResponseNormMlp(\n",
       "                (fc1): Conv2d(192, 768, kernel_size=(1, 1), stride=(1, 1))\n",
       "                (act): GELU()\n",
       "                (drop1): Dropout(p=0.0, inplace=False)\n",
       "                (grn): GlobalResponseNorm()\n",
       "                (fc2): Conv2d(768, 192, kernel_size=(1, 1), stride=(1, 1))\n",
       "                (drop2): Dropout(p=0.0, inplace=False)\n",
       "              )\n",
       "              (shortcut): Identity()\n",
       "              (drop_path): Identity()\n",
       "            )\n",
       "            (3): ConvNeXtBlock(\n",
       "              (conv_dw): Conv2d(192, 192, kernel_size=(7, 7), stride=(1, 1), padding=(3, 3), groups=192)\n",
       "              (norm): LayerNorm2d((192,), eps=1e-06, elementwise_affine=True)\n",
       "              (mlp): GlobalResponseNormMlp(\n",
       "                (fc1): Conv2d(192, 768, kernel_size=(1, 1), stride=(1, 1))\n",
       "                (act): GELU()\n",
       "                (drop1): Dropout(p=0.0, inplace=False)\n",
       "                (grn): GlobalResponseNorm()\n",
       "                (fc2): Conv2d(768, 192, kernel_size=(1, 1), stride=(1, 1))\n",
       "                (drop2): Dropout(p=0.0, inplace=False)\n",
       "              )\n",
       "              (shortcut): Identity()\n",
       "              (drop_path): Identity()\n",
       "            )\n",
       "            (4): ConvNeXtBlock(\n",
       "              (conv_dw): Conv2d(192, 192, kernel_size=(7, 7), stride=(1, 1), padding=(3, 3), groups=192)\n",
       "              (norm): LayerNorm2d((192,), eps=1e-06, elementwise_affine=True)\n",
       "              (mlp): GlobalResponseNormMlp(\n",
       "                (fc1): Conv2d(192, 768, kernel_size=(1, 1), stride=(1, 1))\n",
       "                (act): GELU()\n",
       "                (drop1): Dropout(p=0.0, inplace=False)\n",
       "                (grn): GlobalResponseNorm()\n",
       "                (fc2): Conv2d(768, 192, kernel_size=(1, 1), stride=(1, 1))\n",
       "                (drop2): Dropout(p=0.0, inplace=False)\n",
       "              )\n",
       "              (shortcut): Identity()\n",
       "              (drop_path): Identity()\n",
       "            )\n",
       "            (5): ConvNeXtBlock(\n",
       "              (conv_dw): Conv2d(192, 192, kernel_size=(7, 7), stride=(1, 1), padding=(3, 3), groups=192)\n",
       "              (norm): LayerNorm2d((192,), eps=1e-06, elementwise_affine=True)\n",
       "              (mlp): GlobalResponseNormMlp(\n",
       "                (fc1): Conv2d(192, 768, kernel_size=(1, 1), stride=(1, 1))\n",
       "                (act): GELU()\n",
       "                (drop1): Dropout(p=0.0, inplace=False)\n",
       "                (grn): GlobalResponseNorm()\n",
       "                (fc2): Conv2d(768, 192, kernel_size=(1, 1), stride=(1, 1))\n",
       "                (drop2): Dropout(p=0.0, inplace=False)\n",
       "              )\n",
       "              (shortcut): Identity()\n",
       "              (drop_path): Identity()\n",
       "            )\n",
       "          )\n",
       "        )\n",
       "        (3): ConvNeXtStage(\n",
       "          (downsample): Sequential(\n",
       "            (0): LayerNorm2d((192,), eps=1e-06, elementwise_affine=True)\n",
       "            (1): Conv2d(192, 384, kernel_size=(2, 2), stride=(2, 2))\n",
       "          )\n",
       "          (blocks): Sequential(\n",
       "            (0): ConvNeXtBlock(\n",
       "              (conv_dw): Conv2d(384, 384, kernel_size=(7, 7), stride=(1, 1), padding=(3, 3), groups=384)\n",
       "              (norm): LayerNorm2d((384,), eps=1e-06, elementwise_affine=True)\n",
       "              (mlp): GlobalResponseNormMlp(\n",
       "                (fc1): Conv2d(384, 1536, kernel_size=(1, 1), stride=(1, 1))\n",
       "                (act): GELU()\n",
       "                (drop1): Dropout(p=0.0, inplace=False)\n",
       "                (grn): GlobalResponseNorm()\n",
       "                (fc2): Conv2d(1536, 384, kernel_size=(1, 1), stride=(1, 1))\n",
       "                (drop2): Dropout(p=0.0, inplace=False)\n",
       "              )\n",
       "              (shortcut): Identity()\n",
       "              (drop_path): Identity()\n",
       "            )\n",
       "            (1): ConvNeXtBlock(\n",
       "              (conv_dw): Conv2d(384, 384, kernel_size=(7, 7), stride=(1, 1), padding=(3, 3), groups=384)\n",
       "              (norm): LayerNorm2d((384,), eps=1e-06, elementwise_affine=True)\n",
       "              (mlp): GlobalResponseNormMlp(\n",
       "                (fc1): Conv2d(384, 1536, kernel_size=(1, 1), stride=(1, 1))\n",
       "                (act): GELU()\n",
       "                (drop1): Dropout(p=0.0, inplace=False)\n",
       "                (grn): GlobalResponseNorm()\n",
       "                (fc2): Conv2d(1536, 384, kernel_size=(1, 1), stride=(1, 1))\n",
       "                (drop2): Dropout(p=0.0, inplace=False)\n",
       "              )\n",
       "              (shortcut): Identity()\n",
       "              (drop_path): Identity()\n",
       "            )\n",
       "          )\n",
       "        )\n",
       "      )\n",
       "      (norm_pre): Identity()\n",
       "      (head): NormMlpClassifierHead(\n",
…
    "execution": {
     "iopub.execute_input": "2024-10-28T15:37:01.044376Z",
     "iopub.status.busy": "2024-10-28T15:37:01.043992Z",
     "iopub.status.idle": "2024-10-28T15:37:01.052697Z",
     "shell.execute_reply": "2024-10-28T15:37:01.051626Z"
    },
    "papermill": {
     "duration": 0.021638,
     "end_time": "2024-10-28T15:37:01.054845",
     "exception": false,
     "start_time": "2024-10-28T15:37:01.033207",
     "status": "completed"
    },
    "tags": []
   },
   "outputs": [
    {
     "data": {
      "text/plain": [
       "Sequential(\n",
       "  (0): Sequential(\n",
       "    (0): Conv2d(3, 64, kernel_size=(7, 7), stride=(2, 2), padding=(3, 3), bias=False)\n",
       "    (1): BatchNorm2d(64, eps=1e-05, momentum=0.1, affine=True, track_running_stats=True)\n",
       "    (2): ReLU(inplace=True)\n",
       "    (3): MaxPool2d(kernel_size=3, stride=2, padding=1, dilation=1, ceil_mode=False)\n",
       "    (4): Sequential(\n",
       "      (0): BasicBlock(\n",
       "        (conv1): Conv2d(64, 64, kernel_size=(3, 3), stride=(1, 1), padding=(1, 1), bias=False)\n",
       "        (bn1): BatchNorm2d(64, eps=1e-05, momentum=0.1, affine=True, track_running_stats=True)\n",
       "        (relu): ReLU(inplace=True)\n",
       "        (conv2): Conv2d(64, 64, kernel_size=(3, 3), stride=(1, 1), padding=(1, 1), bias=False)\n",
       "        (bn2): BatchNorm2d(64, eps=1e-05, momentum=0.1, affine=True, track_running_stats=True)\n",
       "      )\n",
       "      (1): BasicBlock(\n",
       "        (conv1): Conv2d(64, 64, kernel_size=(3, 3), stride=(1, 1), padding=(1, 1), bias=False)\n",
       "        (bn1): BatchNorm2d(64, eps=1e-05, momentum=0.1, affine=True, track_running_stats=True)\n",
       "        (relu): ReLU(inplace=True)\n",
       "        (conv2): Conv2d(64, 64, kernel_size=(3, 3), stride=(1, 1), padding=(1, 1), bias=False)\n",
       "        (bn2): BatchNorm2d(64, eps=1e-05, momentum=0.1, affine=True, track_running_stats=True)\n",
       "      )\n",
       "      (2): BasicBlock(\n",
       "        (conv1): Conv2d(64, 64, kernel_size=(3, 3), stride=(1, 1), padding=(1, 1), bias=False)\n",
       "        (bn1): BatchNorm2d(64, eps=1e-05, momentum=0.1, affine=True, track_running_stats=True)\n",
       "        (relu): ReLU(inplace=True)\n",
       "        (conv2): Conv2d(64, 64, kernel_size=(3, 3), stride=(1, 1), padding=(1, 1), bias=False)\n",
       "        (bn2): BatchNorm2d(64, eps=1e-05, momentum=0.1, affine=True, track_running_stats=True)\n",
       "      )\n",
       "    )\n",
       "    (5): Sequential(\n",
       "      (0): BasicBlock(\n",
       "        (conv1): Conv2d(64, 128, kernel_size=(3, 3), stride=(2, 2), padding=(1, 1), bias=False)\n",
       "        (bn1): BatchNorm2d(128, eps=1e-05, momentum=0.1, affine=True, track_running_stats=True)\n",
       "        (relu): ReLU(inplace=True)\n",
       "        (conv2): Conv2d(128, 128, kernel_size=(3, 3), stride=(1, 1), padding=(1, 1), bias=False)\n",
       "        (bn2): BatchNorm2d(128, eps=1e-05, momentum=0.1, affine=True, track_running_stats=True)\n",
       "        (downsample): Sequential(\n",
       "          (0): Conv2d(64, 128, kernel_size=(1, 1), stride=(2, 2), bias=False)\n",
       "          (1): BatchNorm2d(128, eps=1e-05, momentum=0.1, affine=True, track_running_stats=True)\n",
       "        )\n",
       "      )\n",
       "      (1): BasicBlock(\n",
       "        (conv1): Conv2d(128, 128, kernel_size=(3, 3), stride=(1, 1), padding=(1, 1), bias=False)\n",
       "        (bn1): BatchNorm2d(128, eps=1e-05, momentum=0.1, affine=True, track_running_stats=True)\n",
       "        (relu): ReLU(inplace=True)\n",
       "        (conv2): Conv2d(128, 128, kernel_size=(3, 3), stride=(1, 1), padding=(1, 1), bias=False)\n",
       "        (bn2): BatchNorm2d(128, eps=1e-05, momentum=0.1, affine=True, track_running_stats=True)\n",
       "      )\n",
       "      (2): BasicBlock(\n",
       "        (conv1): Conv2d(128, 128, kernel_size=(3, 3), stride=(1, 1), padding=(1, 1), bias=False)\n",
       "        (bn1): BatchNorm2d(128, eps=1e-05, momentum=0.1, affine=True, track_running_stats=True)\n",
       "        (relu): ReLU(inplace=True)\n",
       "        (conv2): Conv2d(128, 128, kernel_size=(3, 3), stride=(1, 1), padding=(1, 1), bias=False)\n",
       "        (bn2): BatchNorm2d(128, eps=1e-05, momentum=0.1, affine=True, track_running_stats=True)\n",
       "      )\n",
       "      (3): BasicBlock(\n",
       "        (conv1): Conv2d(128, 128, kernel_size=(3, 3), stride=(1, 1), padding=(1, 1), bias=False)\n",
       "        (bn1): BatchNorm2d(128, eps=1e-05, momentum=0.1, affine=True, track_running_stats=True)\n",
       "        (relu): ReLU(inplace=True)\n",
       "        (conv2): Conv2d(128, 128, kernel_size=(3, 3), stride=(1, 1), padding=(1, 1), bias=False)\n",
       "        (bn2): BatchNorm2d(128, eps=1e-05, momentum=0.1, affine=True, track_running_stats=True)\n",
       "      )\n",
       "    )\n",
       "    (6): Sequential(\n",
       "      (0): BasicBlock(\n",
       "        (conv1): Conv2d(128, 256, kernel_size=(3, 3), stride=(2, 2), padding=(1, 1), bias=False)\n",
       "        (bn1): BatchNorm2d(256, eps=1e-05, momentum=0.1, affine=True, track_running_stats=True)\n",
       "        (relu): ReLU(inplace=True)\n",
       "        (conv2): Conv2d(256, 256, kernel_size=(3, 3), stride=(1, 1), padding=(1, 1), bias=False)\n",
       "        (bn2): BatchNorm2d(256, eps=1e-05, momentum=0.1, affine=True, track_running_stats=True)\n",
       "        (downsample): Sequential(\n",
       "          (0): Conv2d(128, 256, kernel_size=(1, 1), stride=(2, 2), bias=False)\n",
       "          (1): BatchNorm2d(256, eps=1e-05, momentum=0.1, affine=True, track_running_stats=True)\n",
       "        )\n",
       "      )\n",
       "      (1): BasicBlock(\n",
       "        (conv1): Conv2d(256, 256, kernel_size=(3, 3), stride=(1, 1), padding=(1, 1), bias=False)\n",
       "        (bn1): BatchNorm2d(256, eps=1e-05, momentum=0.1, affine=True, track_running_stats=True)\n",
       "        (relu): ReLU(inplace=True)\n",
       "        (conv2): Conv2d(256, 256, kernel_size=(3, 3), stride=(1, 1), padding=(1, 1), bias=False)\n",
       "        (bn2): BatchNorm2d(256, eps=1e-05, momentum=0.1, affine=True, track_running_stats=True)\n",
       "      )\n",
       "      (2): BasicBlock(\n",
       "        (conv1): Conv2d(256, 256, kernel_size=(3, 3), stride=(1, 1), padding=(1, 1), bias=False)\n",
       "        (bn1): BatchNorm2d(256, eps=1e-05, momentum=0.1, affine=True, track_running_stats=True)\n",
       "        (relu): ReLU(inplace=True)\n",
       "        (conv2): Conv2d(256, 256, kernel_size=(3, 3), stride=(1, 1), padding=(1, 1), bias=False)\n",
       "        (bn2): BatchNorm2d(256, eps=1e-05, momentum=0.1, affine=True, track_running_stats=True)\n",
       "      )\n",
       "      (3): BasicBlock(\n",
       "        (conv1): Conv2d(256, 256, kernel_size=(3, 3), stride=(1, 1), padding=(1, 1), bias=False)\n",
       "        (bn1): BatchNorm2d(256, eps=1e-05, momentum=0.1, affine=True, track_running_stats=True)\n",
       "        (relu): ReLU(inplace=True)\n",
       "        (conv2): Conv2d(256, 256, kernel_size=(3, 3), stride=(1, 1), padding=(1, 1), bias=False)\n",
       "        (bn2): BatchNorm2d(256, eps=1e-05, momentum=0.1, affine=True, track_running_stats=True)\n",
       "      )\n",
       "      (4): BasicBlock(\n",
       "        (conv1): Conv2d(256, 256, kernel_size=(3, 3), stride=(1, 1), padding=(1, 1), bias=False)\n",
       "        (bn1): BatchNorm2d(256, eps=1e-05, momentum=0.1, affine=True, track_running_stats=True)\n",
       "        (relu): ReLU(inplace=True)\n",
       "        (conv2): Conv2d(256, 256, kernel_size=(3, 3), stride=(1, 1), padding=(1, 1), bias=False)\n",
       "        (bn2): BatchNorm2d(256, eps=1e-05, momentum=0.1, affine=True, track_running_stats=True)\n",
       "      )\n",
       "      (5): BasicBlock(\n",
       "        (conv1): Conv2d(256, 256, kernel_size=(3, 3), stride=(1, 1), padding=(1, 1), bias=False)\n",
       "        (bn1): BatchNorm2d(256, eps=1e-05, momentum=0.1, affine=True, track_running_stats=True)\n",
       "        (relu): ReLU(inplace=True)\n",
       "        (conv2): Conv2d(256, 256, kernel_size=(3, 3), stride=(1, 1), padding=(1, 1), bias=False)\n",
       "        (bn2): BatchNorm2d(256, eps=1e-05, momentum=0.1, affine=True, track_running_stats=True)\n",
       "      )\n",
       "    )\n",
       "    (7): Sequential(\n",
       "      (0): BasicBlock(\n",
       "        (conv1): Conv2d(256, 512, kernel_size=(3, 3), stride=(2, 2), padding=(1, 1), bias=False)\n",
       "        (bn1): BatchNorm2d(512, eps=1e-05, momentum=0.1, affine=True, track_running_stats=True)\n",
       "        (relu): ReLU(inplace=True)\n",
       "        (conv2): Conv2d(512, 512, kernel_size=(3, 3), stride=(1, 1), padding=(1, 1), bias=False)\n",
       "        (bn2): BatchNorm2d(512, eps=1e-05, momentum=0.1, affine=True, track_running_stats=True)\n",
       "        (downsample): Sequential(\n",
       "          (0): Conv2d(256, 512, kernel_size=(1, 1), stride=(2, 2), bias=False)\n",
       "          (1): BatchNorm2d(512, eps=1e-05, momentum=0.1, affine=True, track_running_stats=True)\n",
       "        )\n",
       "      )\n",
       "      (1): BasicBlock(\n",
       "        (conv1): Conv2d(512, 512, kernel_size=(3, 3), stride=(1, 1), padding=(1, 1), bias=False)\n",
       "        (bn1): BatchNorm2d(512, eps=1e-05, momentum=0.1, affine=True, track_running_stats=True)\n",
       "        (relu): ReLU(inplace=True)\n",
       "        (conv2): Conv2d(512, 512, kernel_size=(3, 3), stride=(1, 1), padding=(1, 1), bias=False)\n",
       "        (bn2): BatchNorm2d(512, eps=1e-05, momentum=0.1, affine=True, track_running_stats=True)\n",
       "      )\n",
       "      (2): BasicBlock(\n",
       "        (conv1): Conv2d(512, 512, kernel_size=(3, 3), stride=(1, 1), padding=(1, 1), bias=False)\n",
       "        (bn1): BatchNorm2d(512, eps=1e-05, momentum=0.1, affine=True, track_running_stats=True)\n",
       "        (relu): ReLU(inplace=True)\n",
       "        (conv2): Conv2d(512, 512, kernel_size=(3, 3), stride=(1, 1), padding=(1, 1), bias=False)\n",
       "        (bn2): BatchNorm2d(512, eps=1e-05, momentum=0.1, affine=True, track_running_stats=True)\n",
       "      )\n",
       "    )\n",
       "  )\n",
       "  (1): Sequential(\n",
       "    (0): AdaptiveConcatPool2d(\n",
       "      (ap): AdaptiveAvgPool2d(output_size=1)\n",
       "      (mp): AdaptiveMaxPool2d(output_size=1)\n",
       "    )\n",
       "    (1): fastai.layers.Flatten(full=False)\n",
       "    (2): BatchNorm1d(1024, eps=1e-05, momentum=0.1, affine=True, track_running_stats=True)\n",
       "    (3): Dropout(p=0.25, inplace=False)\n",
       "    (4): Linear(in_features=1024, out_features=512, bias=False)\n",
       "    (5): ReLU(inplace=True)\n",
       "    (6): BatchNorm1d(512, eps=1e-05, momentum=0.1, affine=True, track_running_stats=True)\n",
       "    (7): Dropout(p=0.5, inplace=False)\n",
       "    (8): Linear(in_features=512, out_features=2, bias=False)\n",
       "  )\n",
       ")"
      ]
     },
     "execution_count": 12,
     "metadata": {},
     "output_type": "execute_result"
    }
   ],
   "source": [
    "m_res = learn_resnet.model\n",
    "m_res"
   ]
  },
  {
   "cell_type": "code",
   "execution_count": 13,
   "id": "ac3ec8e9",
   "metadata": {
    "execution": {
     "iopub.execute_input": "2024-10-28T15:37:01.075817Z",
…
